…
          "base_uri": "https://localhost:8080/"
        },
        "id": "BYjLi3vnEFJj",
        "outputId": "2634d1b3-7620-47e0-ca16-34b63f3e59f4"
      },
      "execution_count": null,
      "outputs": [
        {
          "output_type": "stream",
          "name": "stdout",
          "text": [
            "Model: \"sequential_14\"\n",
            "_________________________________________________________________\n",
            " Layer (type)                Output Shape              Param #   \n",
            "=================================================================\n",
            " conv2d_29 (Conv2D)          (None, 126, 126, 32)      896       \n",
            "                                                                 \n",
            " batch_normalization_28 (Bat  (None, 126, 126, 32)     128       \n",
            " chNormalization)                                                \n",
            "                                                                 \n",
            " max_pooling2d_28 (MaxPoolin  (None, 63, 63, 32)       0         \n",
            " g2D)                                                            \n",
            "                                                                 \n",
            " dropout_57 (Dropout)        (None, 63, 63, 32)        0         \n",
            "                                                                 \n",
            " conv2d_30 (Conv2D)          (None, 63, 63, 64)        18496     \n",
            "                                                                 \n",
            " batch_normalization_29 (Bat  (None, 63, 63, 64)       256       \n",
            " chNormalization)                                                \n",
            "                                                                 \n",
            " max_pooling2d_29 (MaxPoolin  (None, 31, 31, 64)       0         \n",
            " g2D)                                                            \n",
            "                                                                 \n",
            " dropout_58 (Dropout)        (None, 31, 31, 64)        0         \n",
            "                                                                 \n",
            " conv2d_31 (Conv2D)          (None, 31, 31, 128)       73856     \n",
            "                                                                 \n",
            " batch_normalization_30 (Bat  (None, 31, 31, 128)      512       \n",
            " chNormalization)                                                \n",
            "                                                                 \n",
            " max_pooling2d_30 (MaxPoolin  (None, 15, 15, 128)      0         \n",
            " g2D)                                                            \n",
            "                                                                 \n",
            " dropout_59 (Dropout)        (None, 15, 15, 128)       0         \n",
            "                                                                 \n",
            " conv2d_32 (Conv2D)          (None, 15, 15, 256)       295168    \n",
            "                                                                 \n",
            " batch_normalization_31 (Bat  (None, 15, 15, 256)      1024      \n",
            " chNormalization)                                                \n",
            "                                                                 \n",
            " max_pooling2d_31 (MaxPoolin  (None, 7, 7, 256)        0         \n",
            " g2D)                                                            \n",
            "                                                                 \n",
            " dropout_60 (Dropout)        (None, 7, 7, 256)         0         \n",
            "                                                                 \n",
            " flatten_10 (Flatten)        (None, 12544)             0         \n",
            "                                                                 \n",
            " dense_39 (Dense)            (None, 256)               3211520   \n",
            "                                                                 \n",
            " dropout_61 (Dropout)        (None, 256)               0         \n",
            "                                                                 \n",
            " dense_40 (Dense)            (None, 128)               32896     \n",
            "                                                                 \n",
            " dropout_62 (Dropout)        (None, 128)               0         \n",
            "                                                                 \n",
            " dense_41 (Dense)            (None, 64)                8256      \n",
            "                                                                 \n",
            " dropout_63 (Dropout)        (None, 64)                0         \n",
            "                                                                 \n",
            " dense_42 (Dense)            (None, 1)                 65        \n",
            "                                                                 \n",
            "=================================================================\n",
            "Total params: 3,643,073\n",
            "Trainable params: 3,642,113\n",
            "Non-trainable params: 960\n",
            "_________________________________________________________________\n"
          ]
…
